nature_model.pt (torch, 5179 bytes, 2 tensors)

weight f4 [2, 512]
000000 23 ed 7f 3e 7f 2e b1 bd 1b ca bf bc 97 4f ed 3e
       0.24992804 -0.086514466 -0.023411801 0.46349785
000010 d9 77 d1 3d 4f 20 8e bd 4e 51 9e be e7 c3 97 3e
       0.10227937 -0.06939756 -0.30921406 0.2964165
000020 c8 15 8c be 2e 36 13 bf 8a b9 38 be 57 28 d1 be
       -0.27360368 -0.57504547 -0.18039528 -0.4085109
000030 33 4b 06 3e cf 30 22 3b 34 f9 70 3d 71 39 89 3c
       0.13114624 0.002474833 0.05883141 0.016751023
000040 7f ab f9 3b 65 2e 4a be 1d 25 20 3e 55 14 c2 be
       0.007619321 -0.1974426 0.15639158 -0.37906137
000050 14 c4 03 3e d0 63 20 3f 23 47 b6 3d fc 3a 57 3e
       0.12867767 0.626523 0.08900287 0.21018595
000060 89 77 16 3f a4 b3 ff be 32 44 4e 3c ef 94 49 be
       0.58776146 -0.49941742 0.012589501 -0.1968572
000070 be 5c a0 3e 00 cd 6a be 06 65 ce be d7 e7 d1 3e
       0.31320757 -0.22929764 -0.4031145 0.40997192
000080 1f 11 db bd 66 72 1e 3e e7 fc 49 3d 7f da 96 3d
       -0.10696625 0.15473327 0.049313452 0.073658936
000090 9f 99 50 3e 30 56 e9 be 55 6d a9 3e 23 dd 2f 3e
       0.20371102 -0.45573568 0.33091226 0.171742
0000a0 1e ee e5 3d b6 4c f5 3d 87 2b cc 3e 04 ec 4d 3e
       0.11227058 0.11977522 0.3987696 0.20109564
0000b0 94 7a 07 3f 39 98 8e bd 13 79 77 3d db f8 a0 be
       0.52921414 -0.06962628 0.0604182 -0.31439862
0000c0 9d ca 22 bc 18 bd ab be bf 83 9f 3c 4c 7d e1 ba
       -0.009936002 -0.33542705 0.019472001 -0.0017203479
0000d0 f1 99 3a bd 33 45 db 3a 3b c6 51 3d 3f 22 1b be
       -0.045556966 0.0016728997 0.051214438 -0.15149783
0000e0 ed ee df 3d a1 9c 9a 3e 4f 30 57 3e 16 28 72 bd
       0.10934243 0.30197623 0.21014522 -0.05912026
0000f0 ab 2d 98 be 6f c7 9d be af b2 41 be 8a 5e f4 be
       -0.29722342 -0.30816218 -0.18915819 -0.47728378
000100 13 8e 10 bf 30 38 e3 3e 94 dc 2d bf b1 18 b3 be
       -0.5646679 0.44378805 -0.679147 -0.34979776
000110 0d 9e fe 3e aa ce 02 3c 53 db 99 3e 34 85 59 be
       0.49729958 0.007983843 0.30050144 -0.21242219
000120 17 c6 53 be 60 81 5a be c1 d8 87 be e4 26 04 3e
       -0.20681034 -0.21338415 -0.26532558 0.1290546
000130 b0 84 10 3e 1c 7c e0 bd 7e a3 92 3d 8c ae fb 3d
       0.14113116 -0.10961172 0.0716009 0.122891515
000140 1d a3 c9 3d b8 1a 47 be b7 b3 cf 3d 0c 87 b5 bc
       0.098455645 -0.19443786 0.101417 -0.022159122
000150 1a d4 b3 3d 68 78 d2 3c 35 9a 99 be 33 d5 57 bd
       0.087806895 0.02569218 -0.30000463 -0.052693557
000160 97 fb 5b 3c 82 3c 56 be a5 22 08 3d c5 f7 22 3d
       0.013426683 -0.2092152 0.033236165 0.039787073
000170 47 40 cf bd 5f 0a 89 3d ad 39 fa be 07 b1 06 3f
       -0.10119682 0.06691431 -0.48872128 0.5261387
000180 e6 57 ea bd 59 6b fa bd 58 00 84 be 3b 17 3f 3e
       -0.114425465 -0.12227506 -0.25781512 0.18661205
000190 12 1f e3 3d c5 cb fb 3e 11 bf 82 3e 06 7a 56 3e
       0.110899106 0.491789 0.25536397 0.20944986
0001a0 cf cd 20 3d 41 2a c0 be 5b d0 d4 be 91 bb ba bd
       0.039258774 -0.37532237 -0.41565213 -0.09117807
0001b0 4f 21 cc 3e 81 47 b9 3e 53 f9 b1 bd f5 b9 86 be
       0.39869162 0.36187366 -0.08690133 -0.2631375
0001c0 21 21 7e bd df 5c 4d bf 58 03 8c be 5b 82 4b 3e
       -0.062043313 -0.80219835 -0.273463 0.19873945
0001d0 33 62 98 3e cc c4 06 bf 86 98 9b bd 87 2e 2f 3e
       0.2976242 -0.5264404 -0.07597451 0.17107593
0001e0 5c 77 7a 3e c6 cb 19 3d 5e 2b 32 3d 23 5d 3a bf
       0.24459594 0.03754785 0.04349839 -0.72798365
0001f0 9e 86 9d bc 8f 91 46 3c 31 c8 30 bd 47 52 21 bc
       -0.01922923 0.012119665 -0.043159667 -0.009846277
000200 ab 91 cb bc 35 fa 04 bf c7 c6 12 3f 6a e9 74 bd
       -0.024849733 -0.51944286 0.5733456 -0.059792913
000210 83 1f b1 3d 61 06 3a 3d 30 13 a9 be 7e ed c7 bd
       0.086485885 0.04541624 -0.3302245 -0.09762095
000220 91 7b 43 3e e4 72 94 3e 95 e5 2c 3e 53 4f ea bd
       0.19090106 0.28993905 0.16884454 -0.11440911
000230 d1 28 00 3f 8f 1a 57 bd 93 98 9a be bd 65 4e be
       0.5006228 -0.052515563 -0.3019453 -0.20155998
000240 7c a7 18 3d 28 aa bf 3e 14 fa 78 be a3 b2 1e 3d
       0.0372691 0.37434506 -0.24314147 0.03874458
000250 aa d8 14 bd d6 ed 9b be ce a8 42 be 8c ea 16 3d
       -0.03633944 -0.30454892 -0.19009706 0.036844775
000260 1c 48 46 be ff 58 e1 be 6b 78 a9 be ac dc 54 be
       -0.19363445 -0.4401321 -0.33099684 -0.20787305
000270 3d 9f 59 3f f1 b2 45 bd 76 21 a5 3e b4 fd c9 3e
       0.85008603 -0.048266355 0.3225209 0.39451373
000280 dc 95 f0 be 98 a2 a1 3e be f4 b7 3d 88 85 a5 be
       -0.46989334 0.31569362 0.08982228 -0.3232844
000290 93 99 8c bd 91 a5 13 bf ef 6b 01 be 35 d0 d8 bd
       -0.068652295 -0.5767451 -0.1263883 -0.10586587
0002a0 ab aa 3b 3d d9 eb 42 bb 1f 71 2a bb c9 e2 60 be
       0.04581706 -0.0029742627 -0.0026007367 -0.21961512
0002b0 3d 1f 2f 3e 1e 07 49 bd 77 f6 28 be e2 42 cc 3e
       0.1710176 -0.049079053 -0.16500269 0.39894778
0002c0 c0 e3 59 bd 34 d8 0c bf bc 9e 22 3e 3d c8 2b be
       -0.053195715 -0.550174 0.15880865 -0.16775604
0002d0 c3 69 56 3d dd 88 c6 3e 93 60 94 be fb 5d 20 bf
       0.052346956 0.38776293 -0.2897993 -0.626434
0002e0 fb 4a 06 3f dc 5f 9f 3e ef e0 da 3d e1 03 a9 3e
       0.5245816 0.31127822 0.10687434 0.33010772
0002f0 df 3e 93 be 8f 14 9b bd 03 68 ff bd 64 09 41 be
       -0.28758904 -0.075722806 -0.124710105 -0.18851238
000300 d5 e0 9b 3e a3 35 c7 3e 92 77 e6 bd 62 f1 eb bd
       0.3044497 0.3890811 -0.11253275 -0.115206495
000310 8f 4b 5a 3c 46 98 33 bd 92 d4 88 3e 6c b7 2f bc
       0.013323679 -0.04384639 0.26724678 -0.0107248835
000320 90 bd a9 3e 5b 8b 25 3c ba 62 50 3e 18 f8 38 be
       0.33152437 0.010104026 0.20350161 -0.1806339
000330 12 1c a4 bd d3 85 f9 bd d9 a4 83 3e f3 44 39 bd
       -0.080131665 -0.12183728 0.25711706 -0.04523177
000340 c7 1b bb 3e b5 36 94 3e 2b 91 84 be 03 05 71 be
       0.3654463 0.28947988 -0.25892004 -0.23537068
000350 bb c7 02 be ec 17 1d 3e 45 54 eb 3e 3f 26 18 3f
       -0.12771504 0.15341157 0.4596273 0.5943336
000360 f7 41 2c be 22 58 9d 3e 78 d3 f4 be ae 00 04 3e
       -0.16822039 0.30731302 -0.47817588 0.12890884
000370 0c b9 ff 3d 6e d4 14 bb 67 d7 90 be 8d 9d b3 3d
       0.12486467 -0.0022709626 -0.2828934 0.08770285
000380 4d a8 14 3e e0 f7 e0 3d 92 13 95 3e 72 41 a7 be
       0.14517327 0.109847784 0.29116493 -0.32667118
000390 47 39 21 bf 6e 7a 58 3f 11 32 87 3e f2 a5 a8 be
       -0.62978023 0.8456181 0.26405385 -0.32939106
0003a0 28 5f 91 3e 4d 48 9c 3e 8b d3 1e be 43 b7 b4 3d
       0.2839291 0.3052391 -0.15510385 0.08824017
0003b0 9d 76 04 3f 77 14 d1 3e 33 b2 9d 3d ca 07 25 3d
       0.5174349 0.40835926 0.077000044 0.04029063
0003c0 07 6b 0e be cb 84 61 3e f9 28 3f bd 63 cb 55 3e
       -0.13908015 0.22023313 -0.046669934 0.20878367
0003d0 dc a5 4e 3e 0c e4 b0 be d7 4b 16 3e fe 6e 05 3e
       0.20180458 -0.34548986 0.14677368 0.13030621
0003e0 6e 4c f1 be 79 a2 1c bd 73 75 0a be 6d 8f 8f 3e
       -0.47128624 -0.038240883 -0.13521366 0.28039113
0003f0 5b c2 c8 3c 12 61 2b 3d b1 ac 21 3e e0 5a 56 3d
       0.024506738 0.04184062 0.15788533 0.05233276

bias f4 [2]
000000 87 38 6a 3d 06 d0 09 bd
       0.057182815 -0.033645652
